…
To enable them in other operations, rebuild TensorFlow with the appropriate compiler flags.
2020-08-17 22:37:10.954826: I tensorflow/compiler/xla/service/service.cc:168] XLA service 0x7fe1dc5f7c60 initialized for platform Host (this does not guarantee that XLA will be used). Devices:
2020-08-17 22:37:10.954847: I tensorflow/compiler/xla/service/service.cc:176]   StreamExecutor device (0): Host, Default Version
Model: "sequential"
_________________________________________________________________
Layer (type)                 Output Shape              Param #   
=================================================================
conv2d (Conv2D)              (None, 62, 30, 64)        640       
_________________________________________________________________
leaky_re_lu (LeakyReLU)      (None, 62, 30, 64)        0         
_________________________________________________________________
batch_normalization (BatchNo (None, 62, 30, 64)        256       
_________________________________________________________________
spatial_dropout2d (SpatialDr (None, 62, 30, 64)        0         
_________________________________________________________________
conv2d_1 (Conv2D)            (None, 60, 28, 32)        18464     
_________________________________________________________________
leaky_re_lu_1 (LeakyReLU)    (None, 60, 28, 32)        0         
_________________________________________________________________
batch_normalization_1 (Batch (None, 60, 28, 32)        128       
_________________________________________________________________
max_pooling2d (MaxPooling2D) (None, 30, 14, 32)        0         
_________________________________________________________________
spatial_dropout2d_1 (Spatial (None, 30, 14, 32)        0         
_________________________________________________________________
conv2d_2 (Conv2D)            (None, 28, 12, 256)       73984     
_________________________________________________________________
leaky_re_lu_2 (LeakyReLU)    (None, 28, 12, 256)       0         
_________________________________________________________________
batch_normalization_2 (Batch (None, 28, 12, 256)       1024      
_________________________________________________________________
spatial_dropout2d_2 (Spatial (None, 28, 12, 256)       0         
_________________________________________________________________
conv2d_3 (Conv2D)            (None, 26, 10, 256)       590080    
_________________________________________________________________
leaky_re_lu_3 (LeakyReLU)    (None, 26, 10, 256)       0         
_________________________________________________________________
batch_normalization_3 (Batch (None, 26, 10, 256)       1024      
_________________________________________________________________
global_average_pooling2d (Gl (None, 256)               0         
_________________________________________________________________
dense (Dense)                (None, 2)                 514       
=================================================================
Total params: 686,114
Trainable params: 684,898
Non-trainable params: 1,216
_________________________________________________________________
Epoch 1/73
  1/508 [..............................] - ETA: 0s - loss: 4.0999 - accuracy: 0.5312  2
…
